…
2026-04-05 12:34:19,189 INFO Loading subgraph cache: ./datasets/wn18rr/subgraph_cache/test_h2_n500_rec.pt
2026-04-05 12:34:19,652 INFO   3134/3134 subgraphs loaded for test split
2026-04-05 12:34:19,652 INFO Skipping subgraph cache (full-graph train+eval mode active).
2026-04-05 12:34:19,652 INFO [*] Loaded KGC dataset 'WN18RR': 40943 entities, 22 relations, 22 edge types (reciprocal=True), 173670 train / 3034 val / 3134 test queries
2026-04-05 12:34:19,653 INFO dim_in=1, dim_out=1
2026-04-05 12:34:19,664 INFO DDP enabled on 4 GPUs.
2026-04-05 12:34:19,664 INFO DistributedDataParallel(
  (module): MultiModel(
    (encoder): FeatureEncoder(
      (node_encoder): KGCNodeEncoder(
        (rel_emb): Embedding(22, 64)
      )
      (edge_encoder): RelationEmbeddingEncoder(
        (emb): Embedding(22, 64)
      )
      (exp_edge_fixer): ExpanderEdgeFixer(
        (exp_edge_attr): Embedding(1, 64)
      )
    )
    (layers): Sequential(
      (0): MultiLayer(
        dim_h=64, model_types=['Exphormer']
        (models): ModuleList(
          (0): GlobalModel(
            (self_attn): ExphormerAttention(
              (Q): Linear(in_features=64, out_features=64, bias=False)
              (K): Linear(in_features=64, out_features=64, bias=False)
              (E): Linear(in_features=64, out_features=64, bias=False)
              (V): Linear(in_features=64, out_features=64, bias=False)
              (V_gate): Linear(in_features=64, out_features=64, bias=False)
              (Q_cond): Embedding(22, 64)
              (E_query): Embedding(22, 64)
              (V_gate_query): Embedding(22, 64)
            )
            (norm1_attn): LayerNorm((64,), eps=1e-05, elementwise_affine=True)
            (dropout_attn): Dropout(p=0.1, inplace=False)
          )
        )
        (ff_linear1): Linear(in_features=64, out_features=128, bias=True)
        (ff_linear2): Linear(in_features=128, out_features=64, bias=True)
        (norm2): LayerNorm((64,), eps=1e-05, elementwise_affine=True)
        (ff_dropout1): Dropout(p=0.1, inplace=False)
        (ff_dropout2): Dropout(p=0.1, inplace=False)
      )
      (1): MultiLayer(
        dim_h=64, model_types=['Exphormer']
        (models): ModuleList(
          (0): GlobalModel(
            (self_attn): ExphormerAttention(
              (Q): Linear(in_features=64, out_features=64, bias=False)
              (K): Linear(in_features=64, out_features=64, bias=False)
              (E): Linear(in_features=64, out_features=64, bias=False)
              (V): Linear(in_features=64, out_features=64, bias=False)
              (V_gate): Linear(in_features=64, out_features=64, bias=False)
              (Q_cond): Embedding(22, 64)
              (E_query): Embedding(22, 64)
              (V_gate_query): Embedding(22, 64)
            )
            (norm1_attn): LayerNorm((64,), eps=1e-05, elementwise_affine=True)
            (dropout_attn): Dropout(p=0.1, inplace=False)
          )
        )
        (ff_linear1): Linear(in_features=64, out_features=128, bias=True)
        (ff_linear2): Linear(in_features=128, out_features=64, bias=True)
        (norm2): LayerNorm((64,), eps=1e-05, elementwise_affine=True)
        (ff_dropout1): Dropout(p=0.1, inplace=False)
        (ff_dropout2): Dropout(p=0.1, inplace=False)
      )
      (2): MultiLayer(
        dim_h=64, model_types=['Exphormer']
        (models): ModuleList(
          (0): GlobalModel(
            (self_attn): ExphormerAttention(
              (Q): Linear(in_features=64, out_features=64, bias=False)
              (K): Linear(in_features=64, out_features=64, bias=False)
              (E): Linear(in_features=64, out_features=64, bias=False)
              (V): Linear(in_features=64, out_features=64, bias=False)
              (V_gate): Linear(in_features=64, out_features=64, bias=False)
              (Q_cond): Embedding(22, 64)
              (E_query): Embedding(22, 64)
              (V_gate_query): Embedding(22, 64)
            )
            (norm1_attn): LayerNorm((64,), eps=1e-05, elementwise_affine=True)
            (dropout_attn): Dropout(p=0.1, inplace=False)
          )
        )
        (ff_linear1): Linear(in_features=64, out_features=128, bias=True)
        (ff_linear2): Linear(in_features=128, out_features=64, bias=True)
        (norm2): LayerNorm((64,), eps=1e-05, elementwise_affine=True)
        (ff_dropout1): Dropout(p=0.1, inplace=False)
        (ff_dropout2): Dropout(p=0.1, inplace=False)
      )
      (3): MultiLayer(
        dim_h=64, model_types=['Exphormer']
        (models): ModuleList(
          (0): GlobalModel(
            (self_attn): ExphormerAttention(
              (Q): Linear(in_features=64, out_features=64, bias=False)
              (K): Linear(in_features=64, out_features=64, bias=False)
              (E): Linear(in_features=64, out_features=64, bias=False)
              (V): Linear(in_features=64, out_features=64, bias=False)
              (V_gate): Linear(in_features=64, out_features=64, bias=False)
              (Q_cond): Embedding(22, 64)
              (E_query): Embedding(22, 64)
              (V_gate_query): Embedding(22, 64)
            )
            (norm1_attn): LayerNorm((64,), eps=1e-05, elementwise_affine=True)
            (dropout_attn): Dropout(p=0.1, inplace=False)
          )
        )
        (ff_linear1): Linear(in_features=64, out_features=128, bias=True)
        (ff_linear2): Linear(in_features=128, out_features=64, bias=True)
        (norm2): LayerNorm((64,), eps=1e-05, elementwise_affine=True)
        (ff_dropout1): Dropout(p=0.1, inplace=False)
        (ff_dropout2): Dropout(p=0.1, inplace=False)
      )
      (4): MultiLayer(
        dim_h=64, model_types=['Exphormer']
        (models): ModuleList(
          (0): GlobalModel(
            (self_attn): ExphormerAttention(
              (Q): Linear(in_features=64, out_features=64, bias=False)
              (K): Linear(in_features=64, out_features=64, bias=False)
              (E): Linear(in_features=64, out_features=64, bias=False)
              (V): Linear(in_features=64, out_features=64, bias=False)
              (V_gate): Linear(in_features=64, out_features=64, bias=False)
              (Q_cond): Embedding(22, 64)
              (E_query): Embedding(22, 64)
              (V_gate_query): Embedding(22, 64)
            )
            (norm1_attn): LayerNorm((64,), eps=1e-05, elementwise_affine=True)
            (dropout_attn): Dropout(p=0.1, inplace=False)
          )
        )
        (ff_linear1): Linear(in_features=64, out_features=128, bias=True)
        (ff_linear2): Linear(in_features=128, out_features=64, bias=True)
        (norm2): LayerNorm((64,), eps=1e-05, elementwise_affine=True)
        (ff_dropout1): Dropout(p=0.1, inplace=False)
        (ff_dropout2): Dropout(p=0.1, inplace=False)
      )
    )
    (post_mp): KGCHead(
      (rel_emb): Embedding(22, 64)
      (scorer): Linear(in_features=128, out_features=1, bias=True)
      (drop): Dropout(p=0.1, inplace=False)
    )
  )
)
2026-04-05 12:34:19,665 INFO Num parameters: 212,097
2026-04-05 12:34:19,665 INFO Starting from epoch 0
wandb: Currently logged in as: maxojeda to https://api.wandb.ai. Use `wandb login --relogin` to force relogin
wandb: Currently logged in as: maxojeda to https://api.wandb.ai. Use `wandb login --relogin` to force relogin
…
