…
2026-04-13 10:35:58,105 INFO InductiveKGCDataset [WN18RR-ind-v1] loaded: train graph 2746 ents / 5410 edges, test graph 922 ents / 1618 edges, 9 relations (reciprocal=True), 5410 train / 630 val / 188 test queries
2026-04-13 10:35:58,106 INFO Skipping subgraph cache (inductive full-graph mode).
2026-04-13 10:35:58,106 INFO [*] Loaded inductive KGC dataset 'WN18RR-ind-v1': 2746 train entities, 18 relations, 18 edge types (reciprocal=True), 10820 train / 630 val / 188 test queries
2026-04-13 10:35:58,106 INFO dim_in=1, dim_out=1
2026-04-13 10:35:58,268 INFO MultiModel(
  (encoder): FeatureEncoder(
    (node_encoder): KGCNodeEncoder(
      (rel_emb): Embedding(18, 32)
    )
    (edge_encoder): RelationEmbeddingEncoder(
      (emb): Embedding(18, 32)
    )
    (exp_edge_fixer): ExpanderEdgeFixer(
      (exp_edge_attr): Embedding(1, 32)
    )
  )
  (layers): Sequential(
    (0): MultiLayer(
      dim_h=32, model_types=['Exphormer']
      (models): ModuleList(
        (0): GlobalModel(
          (self_attn): ExphormerAttention(
            (msg_rel_emb): Embedding(19, 32)
            (Q): Linear(in_features=32, out_features=32, bias=False)
            (K): Linear(in_features=32, out_features=32, bias=False)
            (E): Linear(in_features=32, out_features=32, bias=False)
            (V): Linear(in_features=32, out_features=32, bias=False)
            (shared_rel_emb_table): Embedding(18, 32)
            (proj_q): Linear(in_features=32, out_features=32, bias=False)
            (proj_k): Linear(in_features=32, out_features=32, bias=False)
            (proj_e): Linear(in_features=32, out_features=32, bias=False)
          )
          (norm1_attn): LayerNorm((32,), eps=1e-05, elementwise_affine=True)
          (dropout_attn): Dropout(p=0.1, inplace=False)
        )
      )
      (norm2): LayerNorm((32,), eps=1e-05, elementwise_affine=True)
      (ff_dropout1): Dropout(p=0.1, inplace=False)
      (ff_dropout2): Dropout(p=0.1, inplace=False)
    )
    (1): MultiLayer(
      dim_h=32, model_types=['Exphormer']
      (models): ModuleList(
        (0): GlobalModel(
          (self_attn): ExphormerAttention(
            (msg_rel_emb): Embedding(19, 32)
            (Q): Linear(in_features=32, out_features=32, bias=False)
            (K): Linear(in_features=32, out_features=32, bias=False)
            (E): Linear(in_features=32, out_features=32, bias=False)
            (V): Linear(in_features=32, out_features=32, bias=False)
            (shared_rel_emb_table): Embedding(18, 32)
            (proj_q): Linear(in_features=32, out_features=32, bias=False)
            (proj_k): Linear(in_features=32, out_features=32, bias=False)
            (proj_e): Linear(in_features=32, out_features=32, bias=False)
          )
          (norm1_attn): LayerNorm((32,), eps=1e-05, elementwise_affine=True)
          (dropout_attn): Dropout(p=0.1, inplace=False)
        )
      )
      (norm2): LayerNorm((32,), eps=1e-05, elementwise_affine=True)
      (ff_dropout1): Dropout(p=0.1, inplace=False)
      (ff_dropout2): Dropout(p=0.1, inplace=False)
    )
    (2): MultiLayer(
      dim_h=32, model_types=['Exphormer']
      (models): ModuleList(
        (0): GlobalModel(
          (self_attn): ExphormerAttention(
            (msg_rel_emb): Embedding(19, 32)
            (Q): Linear(in_features=32, out_features=32, bias=False)
            (K): Linear(in_features=32, out_features=32, bias=False)
            (E): Linear(in_features=32, out_features=32, bias=False)
            (V): Linear(in_features=32, out_features=32, bias=False)
            (shared_rel_emb_table): Embedding(18, 32)
            (proj_q): Linear(in_features=32, out_features=32, bias=False)
            (proj_k): Linear(in_features=32, out_features=32, bias=False)
            (proj_e): Linear(in_features=32, out_features=32, bias=False)
          )
          (norm1_attn): LayerNorm((32,), eps=1e-05, elementwise_affine=True)
          (dropout_attn): Dropout(p=0.1, inplace=False)
        )
      )
      (norm2): LayerNorm((32,), eps=1e-05, elementwise_affine=True)
      (ff_dropout1): Dropout(p=0.1, inplace=False)
      (ff_dropout2): Dropout(p=0.1, inplace=False)
    )
  )
  (post_mp): KGCHead(
    (rel_emb): Embedding(18, 32)
    (scorer): Linear(in_features=64, out_features=1, bias=True)
    (drop): Dropout(p=0.1, inplace=False)
  )
)
2026-04-13 10:35:58,268 INFO Num parameters: 27,265
2026-04-13 10:35:58,268 INFO Starting from epoch 0
2026-04-13 10:36:31,364 INFO train: {'epoch': 0, 'time_epoch': 33.01368, 'loss': 7.18026459, 'lr': 0.0, 'params': 27265, 'time_iter': 0.0244, 'subgraph_hits@1': 0.00757576}
2026-04-13 10:36:31,374 INFO eval_epoch_kgc [val]: 1260 queries on full graph (2746 nodes, eval_batch_size=32)
…
