…
2026-04-13 11:00:12,665 INFO InductiveKGCDataset [WN18RR-ind-v1] loaded: train graph 2746 ents / 5410 edges, test graph 922 ents / 1618 edges, 9 relations (reciprocal=True), 5410 train / 630 val / 188 test queries
2026-04-13 11:00:12,666 INFO Skipping subgraph cache (inductive full-graph mode).
2026-04-13 11:00:12,666 INFO [*] Loaded inductive KGC dataset 'WN18RR-ind-v1': 2746 train entities, 18 relations, 18 edge types (reciprocal=True), 10820 train / 630 val / 188 test queries
2026-04-13 11:00:12,666 INFO dim_in=1, dim_out=1
2026-04-13 11:00:12,943 INFO MultiModel(
  (encoder): FeatureEncoder(
    (node_encoder): KGCNodeEncoder(
      (rel_emb): Embedding(18, 32)
    )
    (edge_encoder): RelationEmbeddingEncoder(
      (emb): Embedding(18, 32)
    )
    (exp_edge_fixer): ExpanderEdgeFixer(
      (exp_edge_attr): Embedding(1, 32)
    )
  )
  (layers): Sequential(
    (0): MultiLayer(
      dim_h=32, model_types=['Exphormer']
      (models): ModuleList(
        (0): GlobalModel(
          (self_attn): ExphormerAttention(
            (Q): Linear(in_features=32, out_features=32, bias=False)
            (K): Linear(in_features=32, out_features=32, bias=False)
            (E): Linear(in_features=32, out_features=32, bias=False)
            (V): Linear(in_features=32, out_features=32, bias=False)
            (V_gate): Linear(in_features=32, out_features=32, bias=False)
            (shared_rel_emb_table): Embedding(18, 32)
            (proj_q): Linear(in_features=32, out_features=32, bias=False)
            (proj_k): Linear(in_features=32, out_features=32, bias=False)
            (proj_e): Linear(in_features=32, out_features=32, bias=False)
            (proj_vg): Linear(in_features=32, out_features=32, bias=False)
          )
          (norm1_attn): LayerNorm((32,), eps=1e-05, elementwise_affine=True)
          (dropout_attn): Dropout(p=0.1, inplace=False)
        )
      )
      (ff_linear1): Linear(in_features=32, out_features=64, bias=True)
      (ff_linear2): Linear(in_features=64, out_features=32, bias=True)
      (norm2): LayerNorm((32,), eps=1e-05, elementwise_affine=True)
      (ff_dropout1): Dropout(p=0.1, inplace=False)
      (ff_dropout2): Dropout(p=0.1, inplace=False)
    )
    (1): MultiLayer(
      dim_h=32, model_types=['Exphormer']
      (models): ModuleList(
        (0): GlobalModel(
          (self_attn): ExphormerAttention(
            (Q): Linear(in_features=32, out_features=32, bias=False)
            (K): Linear(in_features=32, out_features=32, bias=False)
            (E): Linear(in_features=32, out_features=32, bias=False)
            (V): Linear(in_features=32, out_features=32, bias=False)
            (V_gate): Linear(in_features=32, out_features=32, bias=False)
            (shared_rel_emb_table): Embedding(18, 32)
            (proj_q): Linear(in_features=32, out_features=32, bias=False)
            (proj_k): Linear(in_features=32, out_features=32, bias=False)
            (proj_e): Linear(in_features=32, out_features=32, bias=False)
            (proj_vg): Linear(in_features=32, out_features=32, bias=False)
          )
          (norm1_attn): LayerNorm((32,), eps=1e-05, elementwise_affine=True)
          (dropout_attn): Dropout(p=0.1, inplace=False)
        )
      )
      (ff_linear1): Linear(in_features=32, out_features=64, bias=True)
      (ff_linear2): Linear(in_features=64, out_features=32, bias=True)
      (norm2): LayerNorm((32,), eps=1e-05, elementwise_affine=True)
      (ff_dropout1): Dropout(p=0.1, inplace=False)
      (ff_dropout2): Dropout(p=0.1, inplace=False)
    )
    (2): MultiLayer(
      dim_h=32, model_types=['Exphormer']
      (models): ModuleList(
        (0): GlobalModel(
          (self_attn): ExphormerAttention(
            (Q): Linear(in_features=32, out_features=32, bias=False)
            (K): Linear(in_features=32, out_features=32, bias=False)
            (E): Linear(in_features=32, out_features=32, bias=False)
            (V): Linear(in_features=32, out_features=32, bias=False)
            (V_gate): Linear(in_features=32, out_features=32, bias=False)
            (shared_rel_emb_table): Embedding(18, 32)
            (proj_q): Linear(in_features=32, out_features=32, bias=False)
            (proj_k): Linear(in_features=32, out_features=32, bias=False)
            (proj_e): Linear(in_features=32, out_features=32, bias=False)
            (proj_vg): Linear(in_features=32, out_features=32, bias=False)
          )
          (norm1_attn): LayerNorm((32,), eps=1e-05, elementwise_affine=True)
          (dropout_attn): Dropout(p=0.1, inplace=False)
        )
      )
      (ff_linear1): Linear(in_features=32, out_features=64, bias=True)
      (ff_linear2): Linear(in_features=64, out_features=32, bias=True)
      (norm2): LayerNorm((32,), eps=1e-05, elementwise_affine=True)
      (ff_dropout1): Dropout(p=0.1, inplace=False)
      (ff_dropout2): Dropout(p=0.1, inplace=False)
    )
  )
  (post_mp): KGCHead(
    (rel_emb): Embedding(18, 32)
    (scorer): Linear(in_features=64, out_features=1, bias=True)
    (drop): Dropout(p=0.1, inplace=False)
  )
)
2026-04-13 11:00:12,944 INFO Num parameters: 44,161
2026-04-13 11:00:12,944 INFO Starting from epoch 0
2026-04-13 11:01:08,045 INFO train: {'epoch': 0, 'time_epoch': 55.01626, 'loss': 7.94411764, 'lr': 0.0, 'params': 44161, 'time_iter': 0.04066, 'subgraph_hits@1': 0.00110865}
2026-04-13 11:01:08,058 INFO eval_epoch_kgc [val]: 1260 queries on full graph (2746 nodes, eval_batch_size=32)
…
