…
2026-04-10 11:16:19,515 INFO InductiveKGCDataset [WN18RR-ind-v1] loaded: train graph 2746 ents / 5410 edges, test graph 922 ents / 1618 edges, 9 relations (reciprocal=True), 5410 train / 630 val / 188 test queries
2026-04-10 11:16:19,515 INFO Skipping subgraph cache (inductive full-graph mode).
2026-04-10 11:16:19,515 INFO [*] Loaded inductive KGC dataset 'WN18RR-ind-v1': 2746 train entities, 18 relations, 18 edge types (reciprocal=True), 10820 train / 630 val / 188 test queries
2026-04-10 11:16:19,515 INFO dim_in=1, dim_out=1
2026-04-10 11:16:19,687 INFO MultiModel(
  (encoder): FeatureEncoder(
    (node_encoder): KGCNodeEncoder(
      (rel_emb): Embedding(18, 64)
    )
    (edge_encoder): RelationEmbeddingEncoder(
      (emb): Embedding(18, 64)
    )
    (exp_edge_fixer): ExpanderEdgeFixer(
      (exp_edge_attr): Embedding(1, 64)
    )
  )
  (shared_layer): MultiLayer(
    dim_h=64, model_types=['Exphormer']
    (models): ModuleList(
      (0): GlobalModel(
        (self_attn): ExphormerAttention(
          (Q): Linear(in_features=64, out_features=64, bias=False)
          (K): Linear(in_features=64, out_features=64, bias=False)
          (E): Linear(in_features=64, out_features=64, bias=False)
          (V): Linear(in_features=64, out_features=64, bias=False)
          (V_gate): Linear(in_features=64, out_features=64, bias=False)
          (shared_rel_emb_table): Embedding(18, 64)
          (proj_q): Linear(in_features=64, out_features=64, bias=False)
          (proj_k): Linear(in_features=64, out_features=64, bias=False)
          (proj_e): Linear(in_features=64, out_features=64, bias=False)
          (proj_vg): Linear(in_features=64, out_features=64, bias=False)
        )
        (norm1_attn): LayerNorm((64,), eps=1e-05, elementwise_affine=True)
        (dropout_attn): Dropout(p=0.1, inplace=False)
      )
    )
    (ff_linear1): Linear(in_features=64, out_features=128, bias=True)
    (ff_linear2): Linear(in_features=128, out_features=64, bias=True)
    (norm2): LayerNorm((64,), eps=1e-05, elementwise_affine=True)
    (ff_dropout1): Dropout(p=0.1, inplace=False)
    (ff_dropout2): Dropout(p=0.1, inplace=False)
  )
  (post_mp): KGCHead(
    (rel_emb): Embedding(18, 64)
    (scorer): Linear(in_features=128, out_features=1, bias=True)
    (drop): Dropout(p=0.1, inplace=False)
  )
)
2026-04-10 11:16:19,688 INFO Num parameters: 58,497
2026-04-10 11:16:19,688 INFO Starting from epoch 0
2026-04-10 11:16:38,988 INFO train: {'epoch': 0, 'time_epoch': 19.2197, 'loss': 7.97060649, 'lr': 0.0, 'params': 58497, 'time_iter': 0.01421, 'subgraph_hits@1': 0.00092387}
2026-04-10 11:16:38,998 INFO eval_epoch_kgc [val]: 1260 queries on full graph (2746 nodes, eval_batch_size=32)
…
